…
     "shell.execute_reply": "2025-04-17T06:49:47.037880Z"
    },
    "papermill": {
     "duration": 0.648511,
     "end_time": "2025-04-17T06:49:47.040331",
     "exception": false,
     "start_time": "2025-04-17T06:49:46.391820",
     "status": "completed"
    },
    "tags": []
   },
   "outputs": [
    {
     "name": "stdout",
     "output_type": "stream",
     "text": [
      "----------------------------------------------------------------\n",
      "        Layer (type)               Output Shape         Param #\n",
      "================================================================\n",
      "            Conv2d-1           [-1, 64, 28, 28]             640\n",
      "              ReLU-2           [-1, 64, 28, 28]               0\n",
      "         MaxPool2d-3           [-1, 64, 14, 14]               0\n",
      "            Conv2d-4          [-1, 192, 14, 14]         110,784\n",
      "              ReLU-5          [-1, 192, 14, 14]               0\n",
      "            Conv2d-6          [-1, 384, 14, 14]         663,936\n",
      "              ReLU-7          [-1, 384, 14, 14]               0\n",
      "            Conv2d-8          [-1, 256, 14, 14]         884,992\n",
      "              ReLU-9          [-1, 256, 14, 14]               0\n",
      "           Conv2d-10          [-1, 256, 14, 14]         590,080\n",
      "             ReLU-11          [-1, 256, 14, 14]               0\n",
      "        MaxPool2d-12            [-1, 256, 7, 7]               0\n",
      "          Dropout-13            [-1, 256, 7, 7]               0\n",
      "          Flatten-14                [-1, 12544]               0\n",
      "           Linear-15                 [-1, 1024]      12,846,080\n",
      "             ReLU-16                 [-1, 1024]               0\n",
      "           Linear-17                  [-1, 512]         524,800\n",
      "             ReLU-18                  [-1, 512]               0\n",
      "           Linear-19                   [-1, 10]           5,130\n",
      "================================================================\n",
      "Total params: 15,626,442\n",
      "Trainable params: 15,626,442\n",
      "Non-trainable params: 0\n",
      "----------------------------------------------------------------\n",
      "Input size (MB): 0.00\n",
      "Forward/backward pass size (MB): 4.43\n",
      "Params size (MB): 59.61\n",
      "Estimated Total Size (MB): 64.04\n",
…
